deeptrader_model.pt (torch, 7214 bytes, 9 tensors)

lstm.weight_ih_l0 f4 [40, 13]
0	0x3d98e8d9	0.07466287
1	0x3e8f0554	0.27933753
2	0x3dd8e3ab	0.10590299
3	0x3e9bfbd7	0.30465576
4	0x3e663940	0.22482777
5	0xbcb151ef	-0.021645514
6	0xbe17893d	-0.14798446
7	0x3ec363a6	0.38161963
8	0x3e69e6d2	0.22841957
9	0x3e94387c	0.28949344
10	0xbe1f3cd5	-0.1555055
11	0x3e040860	0.1289382
12	0x3d3ff7a1	0.046867017
13	0x3e9c8ef9	0.3057783
14	0x3e9e6bdf	0.30941674
15	0x3bd6275f	0.006535455
16	0x3daac933	0.08339157
17	0x3f057b7b	0.5214154
18	0x3d28d329	0.041217003
19	0x3ed9312b	0.42420325
20	0x3c7c9715	0.01541688
21	0x3eb2e465	0.34939876
22	0x3e801ff0	0.25024366
23	0xbe1de1fe	-0.1541824
24	0x3d0923c0	0.03348136
25	0x3e90a6f2	0.2825237
26	0x3ed4f8f6	0.41596192
27	0x3f5ce03e	0.86279666
28	0x3e91992f	0.28437182
29	0x3ef36775	0.4753987
30	0x3f3c8df3	0.736541
31	0x3f0d3010	0.5515146
32	0x3eec6e6d	0.46177998
33	0x3e9df52e	0.3085112
34	0x3eb45e1f	0.3522806
35	0x3e8fdb91	0.28097203
36	0x3f02e770	0.51134396
37	0x3e3d5900	0.18490982
38	0x3f40eeff	0.7536468
39	0x3db86210	0.09003079
40	0x3e994972	0.29938847
41	0x3ede25a9	0.43388107
42	0x3e052a72	0.13004473
43	0x3e695f27	0.22790204
44	0x3eb147ea	0.3462518
45	0x3e1f278b	0.15542428
46	0x3ec60300	0.38674164
47	0x3d5df956	0.054192863
48	0x3de0a4ce	0.10968934
49	0xbddff680	-0.10935688
50	0xbe26f4aa	-0.1630427
51	0x3e7a30ab	0.24432628
52	0x3e409573	0.1880701
53	0x3ec95d10	0.39328814
54	0x3e9b9266	0.3038513
55	0xbc60d3d5	-0.01372238
56	0x3e1ee6be	0.15517709
57	0x3edc6df1	0.4305263
58	0x3eb15a02	0.34638983
59	0x3e85cac0	0.26131248
60	0xbd4fcb42	-0.05073095
61	0x3ce38f10	0.027778178
62	0x3ecf2977	0.40461323
63	0x3ebfb103	0.37439737
64	0xbd582f4e	-0.05277949
65	0xbe47afef	-0.19500707
66	0xbc5797ce	-0.013158752
67	0x3e487233	0.19574814
68	0x3f1b2e84	0.6061785
69	0x3ece3bd3	0.40280017
70	0x3ee7c6e5	0.45268932
71	0xbcf555a7	-0.029948069
72	0x3e81c3cf	0.25344703
73	0x3e5876c4	0.21139055
74	0x3d4b74b9	0.049671862
75	0x3ec74b2a	0.38924533
76	0xbcaebfd9	-0.021331714
77	0x3f00bfbf	0.5029258
78	0x3e75e363	0.24012522
79	0x3e3e7c6a	0.18602148
80	0x3dd74249	0.1051069
81	0x3e3eef32	0.18645933
82	0xbe2332d4	-0.15937358
83	0x3e4a3f1e	0.1975064
84	0x3eccff2d	0.40038434
85	0xbced337a	-0.02895521
86	0x3e129ce5	0.14317663
87	0xbe3539c0	-0.17697811
88	0x3d67c226	0.05658164
89	0x3af7945d	0.001888882
90	0x3ebc7540	0.36808205
91	0x3cea7700	0.028621197
92	0xbdc1eb5a	-0.09468718
93	0x3ee51ed7	0.4475009
94	0x3ed00544	0.40629017
95	0x3ea7b9a6	0.32758826
96	0x3d80b1d9	0.06283922
97	0x3d2f0da6	0.042737626
98	0x3f0a9ffc	0.54150367
99	0xbdb87846	-0.09007315
100	0xbd791c49	-0.06081799
101	0x3e626460	0.22108603
102	0xbdd4ca09	-0.10390098
103	0x3d136c3f	0.035991903
104	0x3e04b599	0.12959899
105	0xbe756f3f	-0.23968218
106	0x3e0e16d3	0.13875894
107	0x3c61a25a	0.013771618
108	0xbe3faae2	-0.1871753
109	0x3e284e83	0.164362
110	0xbea289a0	-0.31745625
111	0xbe9409e5	-0.289138
112	0x3d8700d2	0.06591953
113	0x3e60a423	0.21937613
114	0x3de84744	0.11341718
115	0xbe005bc6	-0.12535009
116	0xbe849723	-0.25896558
117	0x3df11481	0.11771489
118	0x3e9b892c	0.3037809
119	0x3e2b0a3d	0.16703124
120	0xbd349747	-0.04408958
121	0xbd1f18b1	-0.038841907
122	0xbd87bcdf	-0.06627821
123	0xbe3fa8b3	-0.18716697
124	0x3d9334df	0.07187819
125	0xbdbf1abf	-0.09331273
126	0xbe167dff	-0.14696501
127	0x3e495a04	0.19663244
128	0x3d5566d2	0.05210001
129	0xbe872b6c	-0.26400316
130	0x3d6e2615	0.058141787
131	0xbda490db	-0.080354415
132	0x3e97289c	0.2952317
133	0x3e2fa2aa	0.17151895
134	0xbe139f6d	-0.14416285
135	0x3cc80e57	0.0244209
136	0x3e122200	0.14270782
137	0x3e445bed	0.19175692
138	0x3e467086	0.19378862
139	0x3e950d4b	0.29111704
140	0xbdce41ec	-0.10071167
141	0x3e9c15a9	0.30485275
142	0x3ea35ab3	0.31905136
143	0x3ea5ee93	0.3240858
144	0xbe3d1516	-0.18465075
145	0x3e04d8ab	0.12973277
146	0x3e38175e	0.17977664
147	0x3eb3f983	0.351513
148	0xbd5ca509	-0.053868327
149	0x3ebe39bf	0.37153432
150	0x3e50a021	0.20373584
151	0x3e886fe0	0.26647854
152	0x3e33b408	0.17549145
153	0x3e87bd8c	0.265118
154	0xbd729144	-0.059220567
155	0x3e5eaed3	0.21746378
156	0x3e87d6c7	0.2653105
157	0xbe9be498	-0.3044784
158	0xbbc35c85	-0.005961957
159	0xbea7b835	-0.32757726
160	0xbe8d65fc	-0.2761687
161	0xbedfbf00	-0.4370041
162	0xbe85fef8	-0.26171088
163	0xbebb7b00	-0.3661728
164	0x3e3de7fa	0.18545523
165	0xbeb59c04	-0.35470593
166	0xbe30f24b	-0.17279927
167	0x3d8584fa	0.06519504
168	0xbe17781e	-0.14791915
169	0x3d9fd299	0.0780384
170	0x3e579902	0.21054462
171	0x3e37cca7	0.17949162
172	0x3e3a5f27	0.1820036
173	0xbd90c336	-0.070684835
174	0x3e7ff648	0.24996293
175	0xbd794a65	-0.060861964
176	0x3e84a87b	0.2590979
177	0x3c2c0316	0.010498783
178	0xbe178d43	-0.14799981
179	0xbe5dfa27	-0.21677457
180	0x3edbf274	0.42958415
181	0xbe018891	-0.12649752
182	0x3ea38b16	0.31942052
183	0x3e759df7	0.2398604
184	0x3e049f75	0.12951453
185	0xbe842283	-0.2580758
186	0x3e156f9c	0.14593357
187	0x3e99dde2	0.30052096
188	0x3e8f1b6b	0.27950606
189	0x3e64750f	0.2231028
190	0x3e5f4c89	0.2180654
191	0x3e82d8af	0.2555594
192	0xbdd9776b	-0.1061848
193	0x3e976651	0.2957025
194	0x3e045f44	0.12926966
195	0xbe60588b	-0.21908776
196	0x3ddd6b06	0.10811429
197	0x3e240215	0.16016419
198	0xbdca96ca	-0.09892042
199	0x3e96dfae	0.2946753
200	0x3eb40ed1	0.35167554
201	0x3e0d0e03	0.13774876
202	0x3ec5c0cc	0.38623655
203	0x3e887443	0.266512
204	0x3e20bea1	0.15697719
205	0x3db47815	0.08811966
206	0x3ea82e8f	0.3284802
207	0xbd99ff41	-0.07519389
208	0xbe136d5a	-0.14397183
209	0x3d76ccfa	0.060254075
210	0x3e8ab1c6	0.27088755
211	0x3d7fab80	0.062419415
212	0x3eea5bb8	0.457731
213	0x3e093522	0.13399175
214	0x3e39fa10	0.18161798
215	0x3ef5b8b2	0.47992474
216	0x3d2746fd	0.040839184
217	0xbe211afe	-0.15732953
218	0xbe1933b4	-0.1496113
219	0x3ed70121	0.4199305
220	0x3eb60bb1	0.35555795
221	0x3e82a512	0.25516564
222	0xbe76ed46	-0.2411395
223	0x3eb0331c	0.34413993
224	0x3dd46e59	0.1037261
225	0x3e380e1f	0.17974137
226	0xbd85831e	-0.06519149
227	0x3c5ec965	0.013597821
228	0x3e773311	0.24140574
229	0xbd6818e6	-0.05666437
230	0x3ea19d28	0.31565213
231	0x3cd2ad9f	0.025717555
232	0x3ec05763	0.3756667
233	0x3e652a6a	0.22379461
234	0x3e47719a	0.1947693
235	0xbdac553b	-0.08414694
236	0x3e64a10e	0.22327062
237	0xbe93efd6	-0.28893918
238	0x3e908a61	0.28230575
239	0xbe2e81e9	-0.17041744
240	0x3d3db048	0.046310693
241	0xbe74f726	-0.23922405
242	0x3e832ae1	0.25618652
243	0x3e8dae3e	0.27672
244	0xbe68f85c	-0.22750992
245	0xbe6b66ae	-0.22988388
246	0xbe737cdf	-0.23778103
247	0x3e75897e	0.2397823
248	0xbe1f9b81	-0.15586664
249	0xbd28943b	-0.04115699
250	0xbdc9418d	-0.09826956
251	0x3ea7dc69	0.32785347
252	0x3e50104f	0.20318721
253	0x3bcdcab4	0.0062802676
254	0xbe8bf85a	-0.27337915
255	0xbe8297ce	-0.25506443

lstm.weight_hh_l0 f4 [40, 10]
0	0x3ed4b4c3	0.4154416
1	0x3ea53606	0.3226778
2	0xbd260ead	-0.04054134
3	0xbe253953	-0.16135149
4	0xbddedf29	-0.10882408
5	0x3e2828c8	0.16421807
6	0x3ec9464b	0.39311442
7	0x3e9bc464	0.30423272
8	0xbdec0700	-0.11524773
9	0x3c868e5f	0.01642531
10	0xbda112a0	-0.078648806
11	0x3dec9989	0.11552722
12	0xbe91d137	-0.2847993
13	0xbd01c287	-0.031679656
14	0x3d6803ba	0.05664418
15	0x3de2e4bf	0.11078786
16	0x3e0d90c2	0.13824752
17	0x3e51359a	0.20430604
18	0xbe8982ce	-0.2685761
19	0xbe3130c1	-0.17303754
20	0x3f4a1edd	0.78953344
21	0x3f01ffc4	0.5078089
22	0x3ebb5193	0.36585674
23	0x3f3a1f31	0.72703844
24	0x3f467005	0.7751468
25	0x3e9556fb	0.29167923
26	0x3e936302	0.28786474
27	0x3eb555f9	0.35417154
28	0xbf07b6ec	-0.5301349
29	0xbea0584a	-0.3131736
30	0x3eb7ec5a	0.3592251
31	0x3ede8936	0.4346406
32	0xbe8626a5	-0.26201358
33	0xbe290ea2	-0.16509488
34	0xbda4c270	-0.080448985
35	0xbe2c17cd	-0.16805954
36	0xbddbe23d	-0.10736511
37	0xbe0adc29	-0.13560547
38	0x3bdd689a	0.0067568542
39	0xbebf0842	-0.37310988
40	0x3ea03489	0.3129008
41	0x3e55abb9	0.20866288
42	0xbeb58872	-0.35455662
43	0x3ee6fcb0	0.4511466
44	0x3e284be6	0.16435203
45	0xbe39c843	-0.181428
46	0x3e6f9966	0.2339836
47	0xbde8c528	-0.113657296
48	0x3da585fa	0.080821946
49	0xbd63a56d	-0.055577684
50	0x3ee85791	0.45379308
51	0xbe2f3a63	-0.17112117
52	0xba19b938	-0.00058640866
53	0x3eef4efa	0.46739942
54	0x3e371237	0.17878042
55	0x3e8b54bb	0.27213082
56	0xbd4ae281	-0.049532417
57	0x3e2704f7	0.16310488
58	0xbe260f43	-0.1621676
59	0xbc7ff7c6	-0.015623039
60	0xbe1fbffc	-0.1560058
61	0x3e6d8ef1	0.23199059
62	0x3e5e2022	0.21691945
63	0x3d067463	0.03282584
64	0x3e524cd7	0.20537125
65	0x3e8ba80c	0.27276647
66	0x3e5ae57e	0.21376607
67	0x3e82a23e	0.25514406
68	0x3da83927	0.08214026
69	0x3c09a44e	0.00840099
70	0xbd2591ca	-0.04042224
71	0xbdb8ee7c	-0.09029862
72	0xbe97521f	-0.2955484
73	0xbdac703b	-0.08419844
74	0xbd3aa443	-0.04556681
75	0x3e69fd70	0.22850585
76	0x3e9d18b8	0.3068292
77	0x3e034223	0.12818198
78	0xbebfa5c5	-0.3743116
79	0xbebd8414	-0.3701483
80	0x3d8abece	0.06774674
81	0x3d9f9246	0.07791571
82	0x3e5e9ee0	0.21740294
83	0xbe24d58a	-0.16097084
84	0xbe623a0b	-0.22092454
85	0x3d3fe811	0.046852175
86	0xbe835ed3	-0.25658283
87	0xbd99d377	-0.07511037
88	0xbe087f61	-0.13329841
89	0x3de212e0	0.11038756
90	0xbe4abfbc	-0.19799703
91	0xbe94ddf6	-0.29075593
92	0xbe9cb3c5	-0.30605903
93	0x3d3c1ba6	0.045924805
94	0xbe3eab3c	-0.18620008
95	0xbdf97f50	-0.12182486
96	0xbe5540df	-0.20825528
97	0xbe9e95ef	-0.30973765
98	0xbe75427c	-0.23951143
99	0xbe2a6313	-0.16639356
100	0x3e456a37	0.19278799
101	0x3eb61dc1	0.35569575
102	0x3e3e5137	0.18585669
103	0xbd8fbe52	-0.070187226
104	0x3d2e3214	0.042528227
105	0x3d333f06	0.043761276
106	0x3e85f52e	0.2616362
107	0x3dd4a892	0.10383715
108	0x3e33fcfd	0.17576976
109	0xbe5fe35a	-0.21864071
110	0x3d96d6e5	0.07365207
111	0xbd64663a	-0.055761553
112	0xbebbfd5c	-0.36716735
113	0x3de46bf1	0.11153401
114	0xbe1972e1	-0.14985229
115	0xbd68b200	-0.05681038
116	0x3e3ef7b6	0.18649182
117	0xbe4024f8	-0.18764102
118	0x3e36be53	0.1784604
119	0xbe442499	-0.19154586
120	0x3cdd85f0	0.027041405
121	0xbe4fbd12	-0.20286968
122	0xbe43a30f	-0.1910517
123	0xbce78337	-0.02826081
124	0xbe5f856c	-0.2182824
125	0xbe4bac7d	-0.19890018
126	0xbe80fb0f	-0.25191543
127	0xbe94db08	-0.29073358
128	0xbd3b80b3	-0.045777034
129	0x3e01b28a	0.12665763
130	0x3e4cf2a0	0.20014429
131	0x3ebe3d4b	0.37156138
132	0x3d37071d	0.044684518
133	0x3eac8c3b	0.33700737
134	0x3e951066	0.29114074
135	0xbe1c8780	-0.15286064
136	0x3ec7a004	0.3898927
137	0x3e57e018	0.21081579
138	0xbe893285	-0.26796356
139	0x3e4e047b	0.20118897
140	0xbdae149e	-0.08500026
141	0x3ead3c4e	0.3383507
142	0x3dee92d8	0.11649102
143	0xbce222e3	-0.027604526
144	0x3eac2c05	0.33627334
145	0xbe91cfa8	-0.28478742
146	0x3d7d9d5d	0.06191765
147	0xbe0737cd	-0.1320488
148	0x3d7c0be7	0.06153479
149	0xbe4c5a4b	-0.19956319
150	0xbea89b9e	-0.32931226
151	0xbe89ba1f	-0.26899812
152	0xbd9e12d6	-0.077184364
153	0xbe45fa2e	-0.19333717
154	0xbea7a4fb	-0.32743058
155	0xbd472763	-0.048621546
156	0xbcd70a49	-0.026250022
157	0x3e238130	0.1596725
158	0xbdd5d961	-0.10441852
159	0x3ec4d7a5	0.38445774
160	0xbcf8dab6	-0.030377727
161	0xbe0a2bcc	-0.1349327
162	0x3e0e298f	0.13883041
163	0x3dc1e332	0.09467162
164	0xbdf62ce4	-0.12020281
165	0x3de5b9c3	0.11217072
166	0x3d26be52	0.040708847
167	0xbd8cf2b0	-0.068822265
168	0xbdb56d6c	-0.08858761
169	0xbea2e274	-0.31813395
170	0x3e78d862	0.24301293
171	0x3e9997c2	0.29998595
172	0xbe25a558	-0.16176355
173	0xbe81cbe3	-0.25350866
174	0xbcfc348e	-0.030786779
175	0xbdc97bef	-0.098380916
176	0x3de8bf59	0.11364622
177	0x3e8cb608	0.2748263
178	0xbe979c96	-0.29611653
179	0x3dcab977	0.09898656
180	0x3e8a9ec4	0.27074254
181	0xbe31ba4b	-0.17356221
182	0xbe63eaec	-0.22257584
183	0x3e71369d	0.2355599
184	0x3e47c581	0.19508936
185	0x3e0352a1	0.12824489
186	0x3e87d6a1	0.26530936
187	0xbdc64299	-0.09680671
188	0x3e3a73f9	0.18208303
189	0x3e0ce98f	0.1376097
190	0xbdc34e96	-0.095364735
191	0x3e1df4b9	0.15425386
192	0xbe87d2ba	-0.2652796
193	0xbd46f2c0	-0.04857135
194	0xbc4db04a	-0.012554238
195	0x3e3a355b	0.18184416
196	0xbe8c61fc	-0.27418506
197	0x3e842b5c	0.2581433
198	0x3e82de8d	0.25560418
199	0x3c6da490	0.014504567
200	0x3ecb229b	0.3967484
201	0x3e4438f9	0.19162358
202	0xbe5f7d32	-0.21825102
203	0x3e25e626	0.16201076
204	0x3e54e4d1	0.20790412
205	0xbe30e417	-0.1727451
206	0xbdc7f2b3	-0.09763088
207	0x3e69205d	0.22766252
208	0x3d992f12	0.07479681
209	0x3ad8d202	0.0016542079
210	0xbdff33e6	-0.12461071
211	0x3ca1b8bc	0.019741409
212	0xbec93aec	-0.39302766
213	0xbe8d31c0	-0.2757702
214	0x3d9e996f	0.07744109
215	0xbdff52b3	-0.124669455
216	0xbe7a72ef	-0.24457906
217	0x3dcc1c0c	0.09966287
218	0x3e47c631	0.19509198
219	0xbd4d00d6	-0.050049625
220	0xbe0acf69	-0.13555683
221	0x381bb03f	3.711902e-05
222	0xbe6b231c	-0.22962612
223	0x3e1b2b8b	0.15153329
224	0x3e4911b9	0.19635667
225	0xbd95f8a1	-0.07322813
226	0x3e4e7b24	0.20164162
227	0x3ec1d162	0.3785506
228	0xbe40687d	-0.18789859
229	0xbe0dd0f4	-0.1384924
230	0x3e6cb412	0.23115566
231	0xbe11f57c	-0.14253801
232	0xbe966671	-0.29375032
233	0xbe4909ff	-0.1963272
234	0x3e2128e3	0.15738253
235	0x3d13929a	0.036028482
236	0x3dab6bfb	0.08370205
237	0x3e92ac0b	0.28646883
238	0xbe14cf13	-0.14532118
239	0x3dc5a941	0.09651423
240	0x3d39cc15	0.045360643
241	0x3d87899c	0.06618044
242	0xbd1a6350	-0.037692368
243	0x3e5fb541	0.21846487
244	0xbe2779c8	-0.1635505
245	0x3da79dda	0.08184405
246	0xbe3752bc	-0.17902654
247	0xbe8a44d9	-0.27005652
248	0xbe38d391	-0.18049456
249	0x3da85696	0.0821964
250	0x3e282711	0.16421153
251	0xbe0444ac	-0.12916821
252	0x3e8f7d49	0.28025272
253	0xbe9eb188	-0.3099482
254	0xbe99d70f	-0.3004689
255	0x3d39eb01	0.045390133

lstm.bias_ih_l0 f4 [40]
0	0xbd6ceb41	-0.057841543
1	0x3ea32d46	0.31870478
2	0x3f407e86	0.7519306
3	0xbe00c12e	-0.12573692
4	0x3dfd144c	0.12357387
5	0x3db9461d	0.09046576
6	0x3ea6e2bb	0.32594857
7	0xbd44aa9f	-0.04801428
8	0x3e44d884	0.19223219
9	0x3e836dba	0.25669652
10	0x3e6a288e	0.22867033
11	0x3e229c64	0.15879971
12	0x3e750cad	0.23930617
13	0x3e99b4fa	0.30020887
14	0x3e3794f4	0.17927915
15	0xbeb42850	-0.35187006
16	0x3eb289cd	0.3487076
17	0x3e351b2b	0.17686145
18	0x3e924633	0.28569183
19	0x3db29914	0.087206036
20	0x3e508eb6	0.2036694
21	0xbe0e51ff	-0.13898467
22	0x3eba4c7e	0.36386484
23	0x3e794142	0.243413
24	0xbe25cbd0	-0.1619103
25	0x3dabc1cc	0.08386573
26	0x3ea4b275	0.32167402
27	0x3eb10a53	0.3457819
28	0x3be4b955	0.006980101
29	0xbe297349	-0.16547884
30	0x3eb4137f	0.35171124
31	0x3e8d63e3	0.2761527
32	0x3ee27299	0.44228056
33	0x3c55657e	0.013024686
34	0xbdb49fd0	-0.08819544
35	0xbe72f03e	-0.23724458
36	0x3dcf78f7	0.10130494
37	0x3eb112d8	0.3458469
38	0x3c47a1e4	0.012184594
39	0xbe841537	-0.25797436

lstm.bias_hh_l0 f4 [40]
0	0xbd715a7c	-0.058924183
1	0x3e783d0d	0.24242039
2	0x3eaf47a6	0.3423435
3	0xbde22df8	-0.11043924
4	0x3e79e2e3	0.24402957
5	0x3e9ff107	0.31238577
6	0xbd36268f	-0.044470366
7	0xbe415b2c	-0.18882436
8	0x3e478e06	0.19487771
9	0xbea0d878	-0.31415153
10	0x3e104501	0.14088823
11	0xbe5165c4	-0.20448977
12	0xbe1ab153	-0.15106706
13	0xbe17dfa8	-0.14831412
14	0xbd5ce630	-0.05393046
15	0xbe16facc	-0.14744109
16	0x3e45d155	0.19318135
17	0xbe746d73	-0.23869877
18	0xbe7a5454	-0.24446231
19	0x3ceef02f	0.029167263
20	0xbe183ce2	-0.14866975
21	0x3e5cc674	0.21560079
22	0x3cd92090	0.026504785
23	0x3e7bbbcc	0.24583358
24	0x3eb29c61	0.34884933
25	0x3e3e5fab	0.18591182
26	0xbc330856	-0.01092728
27	0xbdd5372c	-0.10410914
28	0xbe32eb3b	-0.17472546
29	0x3db908f4	0.09034911
30	0x3d3de2be	0.046358816
31	0xbdbee378	-0.0932073
32	0x3eae9b27	0.34102747
33	0x3eae7cdf	0.34079644
34	0xbe15fda1	-0.14647533
35	0x3e41845f	0.18898152
36	0x3d63ae23	0.05558599
37	0xbe3a1841	-0.18173315
38	0x3e653de3	0.22386889
39	0x3e90a780	0.28252792

fc1.weight f4 [5, 10]
0	0xbe9c9854	-0.30584967
1	0xbe0d54b7	-0.13801847
2	0xbe257cb5	-0.16160853
3	0xbe667522	-0.2250562
4	0x3dab8981	0.08375836
5	0xbe3b62a0	-0.18299341
6	0xbe1d778d	-0.15377636
7	0x3e81dcc5	0.25363746
8	0xbd6329ee	-0.05545991
9	0x3e86cd40	0.26328468
10	0xbe28ef1f	-0.16497467
11	0x3dc07d89	0.09398944
12	0xbe31e361	-0.17371894
13	0xbe946f65	-0.28991237
14	0xbe292ff0	-0.16522193
15	0xbda930c0	-0.082612514
16	0xbddf1ac4	-0.10893777
17	0xbd03bb15	-0.032160837
18	0x3e9bf0cc	0.3045715
19	0x3da10c0e	0.078636274
20	0x3e3a6932	0.18204191
21	0x3e84577d	0.25847998
22	0xbf3325c0	-0.69979477
23	0x3e570671	0.20998551
24	0x3e32774e	0.17428324
25	0x3dbf81ce	0.0935093
26	0x3ed2713f	0.41102025
27	0x3eb99ce9	0.36252525
28	0xbc11c9e5	-0.008898233
29	0xbe2cd88b	-0.1687948
30	0x3d2f699b	0.042825323
31	0x3aa8f6e6	0.0012890964
32	0x3e9f671d	0.31133357
33	0xbe0a19a9	-0.13486351
34	0x3da5cb1f	0.08095383
35	0x3e850a91	0.25984624
36	0xbbdf420f	-0.0068132947
37	0xbe39beda	-0.1813921
38	0x3df3d3ec	0.11905655
39	0x3c7f70bd	0.015590844
40	0x3e46869d	0.19387288
41	0x3deaf18b	0.11471852
42	0x3f1983bd	0.5996664
43	0x3df230a5	0.118256845
44	0x3e6882bc	0.22706121
45	0xbe7062c1	-0.23475172
46	0xbd17dcf6	-0.03707596
47	0xbde6ac36	-0.112633154
48	0xbd40ccac	-0.04707019
49	0xbdba53cc	-0.09098014

fc1.bias f4 [5]
0	0xbe199fb7	-0.15002333
1	0xbdb264af	-0.0871061
2	0x3e042cd5	0.12907727
3	0xbe1f41d3	-0.15552454
4	0xbe945177	-0.28968403

fc2.weight f4 [3, 5]
0	0xbe70194d	-0.23447151
1	0xbb7c79fe	-0.0038524861
2	0x3e9400d2	0.28906876
3	0xbecea990	-0.4036374
4	0xbf33b2d3	-0.7019474
5	0x3eb7dfbd	0.35912886
6	0xbedb0d3e	-0.4278354
7	0x3ee2d34b	0.4430183
8	0x3e15dfe8	0.14636195
9	0x3ca23d42	0.0198046
10	0x3ea0fb60	0.31441784
11	0x3ea527ac	0.3225683
12	0x3e2f076b	0.17092673
13	0x3e46fced	0.19432421
14	0xbe2d37b0	-0.16915774

fc2.bias f4 [3]
0	0x3e50e9b4	0.2040165
1	0x3ee758f3	0.4518505
2	0xbed2718f	-0.41102263

fc3.weight f4 [1, 3]
0	0x3eb16d8c	0.3465389
1	0x3e9c319f	0.30506608
2	0xbd42aa22	-0.047525533
