realdeep_model.pt (torch, 7214 bytes, 9 tensors)

lstm.weight_ih_l0 f4 [40, 13]
0	0x3e32856c	0.17433709
1	0xbe3b7c82	-0.18309215
2	0xbe2d6f2c	-0.1693694
3	0x3f30eb63	0.6910917
4	0x3ee5fa30	0.4491744
5	0x3ec299cb	0.3800796
6	0x3e922bee	0.2854914
7	0x3e3e3e49	0.18578447
8	0x3e0b2627	0.13588773
9	0xbdcc5a2b	-0.09978136
10	0x3ea8d4b4	0.3297478
11	0xbda44f99	-0.080229945
12	0x3d86017f	0.06543254
13	0xbcefdc96	-0.029279988
14	0xbd9a6fcc	-0.07540855
15	0xbd84a3d4	-0.0647656
16	0x3e15964b	0.14608113
17	0x3e06a80c	0.13150042
18	0x3e7b5e48	0.24547684
19	0x3d8cafd4	0.06869474
20	0x3df1d57e	0.118082985
21	0x3da96516	0.08271234
22	0x3d64767b	0.055777054
23	0x3eb7c525	0.35892597
24	0x3ea2c79d	0.31792918
25	0x3e54338d	0.2072279
26	0x3db2fdad	0.08739791
27	0xbe16c4ac	-0.14723462
28	0x3e610747	0.21975432
29	0x3e8107aa	0.2520116
30	0xbe03502a	-0.12823549
31	0x3ea409f1	0.32038835
32	0x3e9a1b22	0.30098826
33	0x3eb0dc9a	0.34543306
34	0x3ea4242e	0.32058853
35	0x3d89f740	0.06736612
36	0x3e7ba102	0.24573138
37	0xbdfcbda3	-0.12340858
38	0x3ed65ac7	0.41866133
39	0x3e2af851	0.16696288
40	0x3d9d02c7	0.07666545
41	0xbdaef7e0	-0.08543372
42	0xbd24d96d	-0.040246416
43	0xbe1c8d4d	-0.15288277
44	0xbdaefb4a	-0.08544023
45	0x3e1271f8	0.14301288
46	0x3ebb407a	0.3657263
47	0x3ecea9e6	0.40363997
48	0xbd389160	-0.045060515
49	0x3bdf4396	0.006813477
50	0xbb10a5d6	-0.0022071502
51	0x3e28624c	0.16443747
52	0xbdfdf2aa	-0.123998
53	0x3d9687fe	0.07350157
54	0xbddd02d5	-0.10791556
55	0x3e6f4105	0.23364647
56	0x3d74a9a0	0.05973208
57	0xbe60ba58	-0.21946084
58	0x3ea9e9aa	0.33186084
59	0x3e906c03	0.28207406
60	0x3df07ebe	0.11742924
61	0x3e92922a	0.2862714
62	0x3e42a6c3	0.19008927
63	0x3d0de9b2	0.034646697
64	0x3e8e0abd	0.27742568
65	0x3d882ca1	0.06649137
66	0x3c0b14da	0.008488858
67	0xbe79cde5	-0.24394949
68	0x3e025bbe	0.1273031
69	0x3e433981	0.19064905
70	0x3e8071e7	0.250869
71	0x3c9b13f5	0.018930415
72	0x3e414f89	0.18877997
73	0x3db87847	0.09007316
74	0x3ddcb4b4	0.10776654
75	0x3e4aea51	0.19815947
76	0xbe736a11	-0.2377093
77	0x3d0b9a01	0.034082416
78	0xbdb3acac	-0.08773169
79	0xbd478ef9	-0.048720334
80	0x3dfd3bde	0.123649344
81	0x3d42506b	0.047439974
82	0x3e0e649f	0.13905571
83	0x3e92c536	0.28666085
84	0x3e6360ee	0.22204944
85	0x3e8b4cf4	0.27207148
86	0x3e4e9193	0.2017272
87	0x3e96b303	0.2943345
88	0xbc4d722f	-0.0125394305
89	0x3e921e77	0.28538868
90	0x3b6981c0	0.0035630316
91	0x3e32e33b	0.17469494
92	0xbdfe5dbe	-0.12420224
93	0x3e1ccff0	0.15313697
94	0xbd520ac5	-0.051279802
95	0xbdad928f	-0.084752195
96	0x3df3caba	0.119039014
97	0x3e6dbe1b	0.2321705
98	0x3eb5b93c	0.35492885
99	0xbb42964e	-0.002969164
100	0xbd947cee	-0.07250391
101	0x3eb7a1ec	0.35865724
102	0x3d254963	0.04035319
103	0xbe1b86ea	-0.15188184
104	0xbe4fd81a	-0.2029728
105	0x3e2d4def	0.1692426
106	0x3cc88b5a	0.02448051
107	0x3f18d9ba	0.59707224
108	0xbb4564f2	-0.0030119983
109	0x3eb3b010	0.35095263
110	0x3da62365	0.0811222
111	0x3ee15229	0.44007996
112	0x3e5f5d3c	0.2181291
113	0xbe12e886	-0.14346513
114	0x3e2c0149	0.16797365
115	0x3e8c19b7	0.2736337
116	0xbe0143b7	-0.12623487
117	0x3c5c55ec	0.01344822
118	0xbdbccdfd	-0.09218977
119	0x3e19da9a	0.15024796
120	0xbdfecdf7	-0.124416284
121	0xbe4d94ec	-0.2007634
122	0x3e505b70	0.2034738
123	0x3ea5716b	0.32313094
124	0x3e69c0cd	0.22827454
125	0xbd43a84b	-0.04776792
126	0xbe5b06fd	-0.21389385
127	0x3e5b7da6	0.2143465
128	0x3e5d01a9	0.21582665
129	0x3e1e99c0	0.15488338
130	0x3dcad172	0.0990323
131	0x3e8ae2c0	0.27126122
132	0xbd99d1b7	-0.07510703
133	0x3eba9714	0.36443388
134	0x3e918061	0.28418258
135	0x3e743fc8	0.23852456
136	0x3ee6e214	0.4509436
137	0x3f0c7f59	0.5488182
138	0x3dff1808	0.124557555
139	0x3e868e03	0.2628022
140	0x3e1eb2a1	0.15497829
141	0xbbb99225	-0.0056631737
142	0x3d7d69eb	0.06186859
143	0xbd880783	-0.06642058
144	0x3e1b934c	0.15192908
145	0xbdc6cfe4	-0.09707621
146	0x3d2ab333	0.041674804
147	0xbd2c77c0	-0.04210639
148	0x3eb1163b	0.34587273
149	0x3dbc715f	0.09201311
150	0x3dfdf9c8	0.124011576
151	0xbd828dfa	-0.06374736
152	0x3e54a9c8	0.20767891
153	0x3eaf0342	0.34182173
154	0xbde9b6b9	-0.11411805
155	0x3daf703b	0.08566328
156	0xbd5a46ce	-0.05329018
157	0xbe2f4a76	-0.17118248
158	0xbdec4098	-0.11535758
159	0x3eeaac94	0.45834792
160	0x3d8637dd	0.06553624
161	0x3d26b7f5	0.04070278
162	0xbd829721	-0.06376482
163	0x3cfcf90f	0.03088048
164	0xbdf49dbd	-0.11944149
165	0x3e3cc132	0.18433073
166	0xbdc38154	-0.09546152
167	0x3eeed1b3	0.46644363
168	0x3dc4a13c	0.096010655
169	0xbe2998ac	-0.16562146
170	0x3e25b633	0.16182785
171	0x3d291152	0.041276284
172	0xbbabc8eb	-0.005242457
173	0x3e3ec4e9	0.18629803
174	0x3ece0aee	0.40242714
175	0xbe0273ab	-0.12739436
176	0x3cd6f212	0.026238475
177	0x3dcf5f24	0.101255685
178	0xbdf851da	-0.12124987
179	0x3ec6d2a5	0.38832584
180	0xbe1022df	-0.14075802
181	0xbe044e27	-0.12920438
182	0xbe474848	-0.19461167
183	0x3e990906	0.29889697
184	0x3ddeff7f	0.10888576
185	0xbb23213b	-0.0024891633
186	0x3e5f83a5	0.21827562
187	0xbdbfd0f8	-0.093660295
188	0xbc5f7a32	-0.0136399735
189	0x3da0030e	0.07813083
190	0x3c5df126	0.013546264
191	0xbc958058	-0.018249676
192	0xbddd38f1	-0.10801876
193	0x3eb25693	0.34831676
194	0xbdd82b4b	-0.105551325
195	0x3d834b05	0.06410793
196	0x3e3149d3	0.17313318
197	0x3ea0a360	0.31374645
198	0x3e9fbdd2	0.3119951
199	0x3e10ee65	0.1415344
200	0x3d91660a	0.070995405
201	0x3e8c1c3f	0.273653
202	0xbe13eb10	-0.14445138
203	0xbe2fa45f	-0.17152546
204	0x3bca403d	0.0061722086
205	0xbe8f4042	-0.27978712
206	0x3da76560	0.081736326
207	0x3cfaeba3	0.030629938
208	0xbe186cfb	-0.14885323
209	0x3ea86bd2	0.3289476
210	0x3beb4e8f	0.007180996
211	0xbe5d6958	-0.21622217
212	0x3e154cb8	0.14580047
213	0x3e3b6df9	0.1830367
214	0x3eb6b3a2	0.35683924
215	0x3e7724ff	0.24135207
216	0x3db40734	0.087904364
217	0x3ea5bdc1	0.32371333
218	0x3ec90d92	0.39268166
219	0x3e8d5e3c	0.27610958
220	0x3e0eebaa	0.13957086
221	0xbd1100ca	-0.035401143
222	0x3d90371c	0.07041761
223	0x3e8aeb96	0.27132863
224	0x3d0afbd5	0.033931572
225	0x3d81cfe8	0.06338483
226	0x3ec3359c	0.38126838
227	0x3e937efa	0.28807813
228	0x3e97b47e	0.29629892
229	0xbe4b9e5c	-0.19884628
230	0x3da1c398	0.07898635
231	0x3e8973b4	0.26846087
232	0x3d21c2b1	0.039492313
233	0xbe2af70f	-0.16695808
234	0x3e579b66	0.21055374
235	0xbdc2e961	-0.0951717
236	0xbd7701d8	-0.060304493
237	0x3f239c42	0.63910306
238	0x3e7b4bcf	0.24540637
239	0x3c1c7424	0.009549174
240	0x3e71d25f	0.23615406
241	0x3ec43414	0.38320982
242	0x3e8d6088	0.2761271
243	0x3ea21196	0.31654042
244	0xbe6411db	-0.22272436
245	0x3dd91250	0.10599196
246	0x3c8019a9	0.015637236
247	0x3e47f377	0.19526468
248	0xbd9a4323	-0.075323366
249	0x3e30ee3b	0.17278378
250	0x3d01a768	0.03165379
251	0x3c6d38ea	0.014478901
252	0x3decb9cf	0.11558878
253	0xbd31fb79	-0.043452714
254	0x3e5c97ef	0.21542333
255	0xbe552729	-0.2081572

lstm.weight_hh_l0 f4 [40, 10]
0	0xbe2a1961	-0.16611244
1	0x3ebe1e04	0.37132275
2	0xbb85f98b	-0.0040885857
3	0x3ea29862	0.31756884
4	0x3d681cc6	0.056668065
5	0x3ec94c0c	0.39315832
6	0x3e6f1535	0.23347934
7	0x3e4c85b8	0.19972885
8	0x3e532402	0.20619205
9	0xbe4140ba	-0.18872347
10	0x3dfe60bf	0.124207966
11	0x3e5d1963	0.21591716
12	0x3ec16797	0.37774345
13	0x3ed25d5b	0.4108685
14	0xbd23e0c0	-0.04000926
15	0x3eb00916	0.34381932
16	0x3ded586e	0.11589132
17	0x3c499391	0.012303249
18	0xbe0b474b	-0.13601415
19	0x3ed6f707	0.41985342
20	0xbeab99fa	-0.33515912
21	0x3e2996b9	0.16561402
22	0xbde9fb96	-0.11424939
23	0x3e93eebd	0.2889308
24	0x3dbf6ec0	0.09347296
25	0x3e1d88c7	0.15384208
26	0x3e8b5532	0.27213436
27	0x3ed1cc05	0.40975967
28	0x3e393f48	0.18090546
29	0x3e01e278	0.12684047
30	0xbeacfae3	-0.3378516
31	0xbe18e909	-0.14932646
32	0x3ed795f0	0.4210658
33	0x3ed95245	0.4244558
34	0x3ebe8c47	0.37216398
35	0x3e8a47d3	0.27007923
36	0xbd41c250	-0.04730445
37	0x3edee71d	0.435357
38	0x3e901a51	0.28145078
39	0x3e22a8a8	0.1588465
40	0x3ba260c5	0.0049553835
41	0x3e046968	0.12930834
42	0x3c63cf4e	0.013904406
43	0x3ecbc449	0.3979819
44	0x3df9f018	0.122039974
45	0xbe510f99	-0.20416106
46	0x3e9231fa	0.28553754
47	0xbe484304	-0.19556814
48	0x3e23984a	0.15976062
49	0x3e9cb9b1	0.3061042
50	0x3dce5d93	0.100764416
51	0x3d9f72ed	0.07785592
52	0x3bb4d929	0.0055190516
53	0x3db2a6e0	0.08723235
54	0xbeae5fd2	-0.3405748
55	0x3e03fd4f	0.12889598
56	0xbd69afda	-0.05705247
57	0xbdb880da	-0.090089515
58	0xbeaffb76	-0.34371537
59	0x3c4b5651	0.012410716
60	0xbd3ed189	-0.046586547
61	0xbdf09fbc	-0.11749217
62	0x3e948d49	0.29014042
63	0x3e871517	0.26383278
64	0x3db4556e	0.08805357
65	0xbe6b49e7	-0.2297741
66	0x3e9b14af	0.30289218
67	0x3e51f340	0.20502949
68	0x3d14306a	0.036178984
69	0x3ea3f7c4	0.32024968
70	0x3e64aca8	0.22331488
71	0x3e27a2ca	0.16370693
72	0x3ea4d310	0.32192278
73	0x3c693b76	0.014235368
74	0x3d5d30be	0.054001562
75	0x3e6aadc2	0.22917846
76	0x3eb610be	0.35559648
77	0xbe23a70e	-0.15981695
78	0xbd3363db	-0.0437964
79	0x3ebcfde4	0.36912453
80	0xbea52e2c	-0.3226179
81	0xbda80e0c	-0.08205804
82	0x3e8a8a43	0.2705861
83	0xbb3d68f8	-0.0028901678
84	0xbdefe149	-0.117128916
85	0x3df4b12b	0.119478546
86	0x3dbca93b	0.09211966
87	0xbc7a60d9	-0.015281879
88	0x3db3f9ef	0.087879054
89	0x3eba6223	0.36402997
90	0xbdb2614b	-0.087099634
91	0x3e2f6de5	0.17131765
92	0xbdb0e296	-0.08636968
93	0xbd2d445e	-0.04230153
94	0x3db0f213	0.08639922
95	0x3cb7b980	0.02242732
96	0x3e88b94e	0.26703876
97	0x3dd9d560	0.10636401
98	0x3e88b6cf	0.26701972
99	0x3e135448	0.1438762
100	0x3d8715b0	0.065959334
101	0x3e8f8520	0.28031254
102	0xbe5fd8a6	-0.21859989
103	0x3de614d2	0.1123444
104	0x3ca32a95	0.019917766
105	0x3e9d1b1f	0.30684754
106	0xbd1a6f0b	-0.037703555
107	0xbe0cf614	-0.13765746
108	0x3e45d2d0	0.193187
109	0xbe9ad506	-0.3024065
110	0x3e604018	0.2189945
111	0x3db2251a	0.08698483
112	0x3daf3f91	0.08557046
113	0x3ed0d42e	0.4078688
114	0x3eac9148	0.3370459
115	0x3d8f5842	0.06999256
116	0x3d2c206c	0.042023107
117	0x3e27579c	0.16342014
118	0x3e062787	0.13101016
119	0x3e3fba5f	0.18723439
120	0xbe59cb68	-0.21269
121	0xbe2bd1db	-0.16779272
122	0x3e95b72a	0.29241306
123	0x3e6bd6c0	0.2303114
124	0x3df8ab37	0.12142032
125	0x3d9d08c4	0.076676875
126	0x3ebcd8f5	0.36884275
127	0x3ea13f53	0.31493625
128	0x3e8ac055	0.27099863
129	0x3e61ae1d	0.22039075
130	0x3e0742a5	0.13209017
131	0x3e6a0461	0.22853233
132	0x3e054878	0.13015926
133	0xbdc78f79	-0.09744162
134	0x3e92f85e	0.28705114
135	0x3e2eb1cd	0.17060013
136	0x3e9e485f	0.3091459
137	0x3ec73852	0.38910156
138	0x3eabf850	0.33587885
139	0x3eb4e410	0.35330248
140	0xbd10da2e	-0.035364322
141	0xbe3fb9d0	-0.18723226
142	0x3eab76b6	0.33489007
143	0x3d944a4e	0.07240735
144	0x3ec4ccac	0.38437402
145	0xbd9a5d00	-0.075372696
146	0xbbac7095	-0.0052624443
147	0xbdb6ae03	-0.08919909
148	0x3ea32435	0.3186356
149	0xbddd8e94	-0.1081821
150	0x3e022edb	0.12713186
151	0xbd46ca8d	-0.04853301
152	0xbde16bc5	-0.110068835
153	0x3e8514ea	0.2599252
154	0xbe3cfc03	-0.1845551
155	0xbe70be57	-0.23510109
156	0xbbd2c8d3	-0.0064326315
157	0xbd61017a	-0.05493305
158	0x3e7e4236	0.24829945
159	0x3e471e77	0.19445215
160	0x3d8d6ece	0.069059
161	0x3e3aa9d9	0.18228854
162	0x3da4858a	0.08033283
163	0x3e8ae3ed	0.2712702
164	0x3e84e266	0.25953978
165	0x3ec3e461	0.38260177
166	0x3bf8ec3b	0.0075965202
167	0x3b0e174a	0.0021681362
168	0x3e8cba4d	0.27485886
169	0x3e634bff	0.22196959
170	0xbe5be4ee	-0.21474048
171	0x3e91c65a	0.28471643
172	0x3d01d2e3	0.031695258
173	0x3e187b47	0.14890777
174	0x3d8fed16	0.070276424
175	0xbd0155dd	-0.031576026
176	0xbe572729	-0.21011032
177	0x3e8fa021	0.28051856
178	0x3e1707ff	0.14749144
179	0xbe2a4492	-0.1662772
180	0xbec529dc	-0.385085
181	0x3eacf7e4	0.33782876
182	0xbe60c35d	-0.21949525
183	0x3e2c23b0	0.16810489
184	0xbddf2285	-0.10895256
185	0xbdde1b37	-0.108450346
186	0xbe4eb290	-0.20185304
187	0xbd448d40	-0.04798627
188	0xbe5607b7	-0.2090138
189	0x3ebcc2bf	0.3686733
190	0xbee1bf73	-0.44091377
191	0x3ebbe97e	0.36701578
192	0x3ea2d395	0.3180205
193	0xbe18f078	-0.14935482
194	0xbe2391f6	-0.15973648
195	0x3e9b856d	0.30375233
196	0x3e8f8e39	0.28038195
197	0xbddb0885	-0.10694984
198	0xbe29cdd3	-0.16582422
199	0x3e243e14	0.16039306
200	0xbe664d12	-0.22490337
201	0x3d079ed3	0.03311045
202	0xbdb8ac0d	-0.09017191
203	0x3e5e914c	0.21735114
204	0xbe73fbde	-0.23826548
205	0xbe23bddc	-0.15990394
206	0xbe3e3959	-0.18576564
207	0x3e1ba45e	0.1519942
208	0x3e4baefa	0.19890967
209	0x3e590bdd	0.21195932
210	0x3e55862d	0.20851965
211	0xbb640f7e	-0.0034799273
212	0x3e9058fa	0.28192884
213	0x3da3160e	0.07963191
214	0x3eb54c77	0.354099
215	0x3ea67255	0.32509103
216	0x3d9a0d4f	0.0752207
217	0x3e21eb27	0.1581236
218	0xbe0914e1	-0.13386871
219	0x3de4bbea	0.11168654
220	0xbebdf1af	-0.37098452
221	0x3e10f071	0.14154221
222	0xbd9603e3	-0.0732496
223	0x3eac7e59	0.33690146
224	0xbdd10a6c	-0.10207066
225	0xbe351996	-0.17685542
226	0x3e805266	0.25062865
227	0x3da2e1f2	0.07953252
228	0x3edb921e	0.42884916
229	0x3e07916e	0.13239071
230	0x3cf6d637	0.030131442
231	0x3d224eb8	0.039625853
232	0x3e8e4737	0.27788708
233	0x3ec8a3b6	0.39187402
234	0x3e09028f	0.13379882
235	0x3e566e4c	0.20940512
236	0xbc648ea5	-0.013950025
237	0x3e21b207	0.15790568
238	0x3cab54b1	0.020914407
239	0x3d72d205	0.05928232
240	0xbe86b72b	-0.2631162
241	0x3e52fd5c	0.20604461
242	0x3d841ee3	0.06451204
243	0x3d0719c0	0.03298354
244	0x3e8b04a2	0.27151972
245	0x3daa63a8	0.08319789
246	0x3e932cea	0.28745204
247	0x3ea3f8da	0.32025796
248	0x3d965272	0.07339944
249	0x3d819721	0.06327654
250	0x3e43abc3	0.1910849
251	0xbe660dfe	-0.22466275
252	0x3e514e62	0.20440057
253	0xbdc1b5f7	-0.09458535
254	0xbe5276f1	-0.20553185
255	0xba163159	-0.0005729399

lstm.bias_ih_l0 f4 [40]
0	0x3dd0dea3	0.101987146
1	0xbe221723	-0.15829138
2	0xbcf62215	-0.030045548
3	0x3e23a9c0	0.15982723
4	0x3e188461	0.14894249
5	0x3dcede41	0.10100985
6	0x3e6c07c1	0.23049833
7	0xbe1ab8df	-0.15109585
8	0x3ed1f2b1	0.4100547
9	0x3e00c334	0.12574464
10	0xbe1fc740	-0.15603352
11	0x3e442b4a	0.19157138
12	0xbe052d3e	-0.1300554
13	0x3e47509d	0.19464345
14	0x3e9b0d67	0.30283663
15	0xbdd6125d	-0.10452721
16	0x3e7a09ae	0.24417755
17	0x3d887d68	0.06664544
18	0xbe3a5788	-0.18197453
19	0x3c8914ec	0.01673361
20	0xbe640611	-0.22267939
21	0x3e58e92a	0.21182695
22	0x3e401c83	0.18760876
23	0xbe2df8ff	-0.16989516
24	0x3e99cd0a	0.30039245
25	0xbe1bd905	-0.15219505
26	0x3eca1770	0.39471006
27	0x3e905782	0.28191763
28	0xbc190c52	-0.009341316
29	0x3e8bebbf	0.27328297
30	0x3e5cd379	0.21565045
31	0xbe02e9d9	-0.12784518
32	0xbd46c19a	-0.048524477
33	0x3e0d50f2	0.1380041
34	0x3e99ac36	0.300142
35	0x3dda2434	0.106514364
36	0x3df30613	0.11866393
37	0x3ea12f09	0.31481197
38	0xbd7ef473	-0.062244844
39	0x3ed19cd0	0.4093995

lstm.bias_hh_l0 f4 [40]
0	0x3d839c8e	0.06426345
1	0xbdb1b6a8	-0.08677417
2	0x3de9c1c0	0.11413908
3	0x3e523a52	0.2053006
4	0x3e6bd9ac	0.23032254
5	0xbc2b72f2	-0.010464417
6	0xbe42ebf5	-0.19035323
7	0xbe0f01ed	-0.13965578
8	0xbe02feb6	-0.12792477
9	0x3eacb0eb	0.33728728
10	0x3e29e2a2	0.1659036
11	0x3d9845f8	0.074352205
12	0xbd86766f	-0.06565558
13	0xbd9aab02	-0.075521484
14	0x3e29eff8	0.16595447
15	0x3d1ffceb	0.03905956
16	0xbe3305c2	-0.17482665
17	0xbe3efade	-0.18650386
18	0x3ea598f5	0.3234326
19	0xbe6691e1	-0.22516586
20	0x3ea451ab	0.32093558
21	0x3db5cb57	0.088766746
22	0x3ebfb100	0.37439728
23	0x3e3ef41a	0.18647805
24	0xbcdc7c72	-0.026914809
25	0x3d85decd	0.065366365
26	0x3eaed3df	0.3414602
27	0x3eb0febb	0.34569344
28	0x3e5ecebc	0.2175855
29	0x3ec22d6e	0.37925285
30	0x3e86e064	0.2634307
31	0x3ec5b916	0.38617772
32	0x3ed30d90	0.41221285
33	0x3de9078f	0.11378395
34	0x3da41425	0.08011655
35	0xbd3222e4	-0.043490306
36	0x3e8b9fa4	0.27270234
37	0x3e80925a	0.25111657
38	0xbe12c8bf	-0.14334391
39	0x3dce64ac	0.100777954

fc1.weight f4 [5, 10]
0	0x3ecbd226	0.39808768
1	0x3dbe9cc9	0.09307248
2	0x3ed1fa89	0.41011456
3	0x3dead228	0.114658654
4	0x3e7368b0	0.23770404
5	0xbde85528	-0.11344367
6	0xbcf8b9fa	-0.030362118
7	0x3e4c40c9	0.19946589
8	0x3d257ab9	0.04040024
9	0x3e23a4cb	0.15980832
10	0x3e4d43e7	0.20045434
11	0x3cef84f5	0.029238204
12	0xbe074905	-0.13211448
13	0x3e851c04	0.25997937
14	0xbd44bc87	-0.048031356
15	0xbe066b5d	-0.13126893
16	0xbdaf3aa1	-0.085561045
17	0x3dfcdf2f	0.123472564
18	0xbe23b58f	-0.15987228
19	0xbe895761	-0.26824477
20	0x3e1a58e6	0.15072975
21	0x3e210568	0.15724719
22	0x3e3edec6	0.18639669
23	0x3e54577f	0.20736502
24	0x3ebbab6f	0.3665423
25	0xbd350e58	-0.044203132
26	0x3e1cf630	0.15328288
27	0x3ed2ded1	0.4118562
28	0x3dfee140	0.12445307
29	0x3d448a15	0.047983248
30	0x3e4bc465	0.19899137
31	0xbe69a739	-0.22817697
32	0xbdfd513e	-0.12369011
33	0x3e574469	0.2102219
34	0x3e597d5b	0.21239226
35	0x3e594661	0.21218254
36	0x3e5b2ee2	0.21404603
37	0xbe1fd7e2	-0.15609697
38	0x3e076beb	0.13224761
39	0xbdf240aa	-0.1182874
40	0xbdc07d10	-0.09398854
41	0x3eb72253	0.35768375
42	0x3e54376d	0.20724268
43	0x3ea98940	0.33112526
44	0xbbb45c3b	-0.005504159
45	0x3e8bbca3	0.27292356
46	0x3de9a172	0.114077464
47	0x3ea2347e	0.31680673
48	0x3ecf6b06	0.4051134
49	0x3eaf1d10	0.3420186

fc1.bias f4 [5]
0	0xbc639d3b	-0.013892467
1	0xbd1b9437	-0.037983146
2	0xbd189947	-0.03725555
3	0xbe969c18	-0.29415965
4	0xbd8b059c	-0.06788179

fc2.weight f4 [3, 5]
0	0x3d4bf427	0.04979339
1	0xbcf66e2f	-0.030081837
2	0xbd3cc6b0	-0.04608792
3	0x3e72075e	0.23635623
4	0xbd751903	-0.059838306
5	0x3eb196a5	0.34685245
6	0xbe066477	-0.13124262
7	0x3ea9c6d7	0.33159515
8	0xbed40ee0	-0.414176
9	0x3e1274df	0.14302395
10	0xbe288681	-0.16457559
11	0x3d66127a	0.056169964
12	0xbeda7c1e	-0.4267282
13	0xbeaf244e	-0.34207386
14	0xbef8e142	-0.48609358

fc2.bias f4 [3]
0	0x3e97850f	0.29593703
1	0x3ea84519	0.32865217
2	0x3e054ff2	0.13018778

fc3.weight f4 [1, 3]
0	0xbebc8a39	-0.36824206
1	0x3f210591	0.6289912
2	0xbef918bd	-0.48651686
