realdeep_model.pt (torch, 7214 bytes, 9 tensors)

lstm.weight_ih_l0 f4 [40, 13]
0	0xbb4ed7ff	-0.003156185
1	0x3ea56f22	0.3231135
2	0x3e2f144e	0.1709759
3	0x3d3efdc6	0.046628736
4	0x3e00a6a2	0.12563565
5	0x3efda5f8	0.49540687
6	0x3cd115ae	0.025523033
7	0x3f17ecea	0.5934588
8	0x3ebd61f3	0.36988792
9	0x3ee34e92	0.44395882
10	0x3ed9bb5c	0.42525756
11	0x3db88f09	0.09011657
12	0x3e1b9f4c	0.15197486
13	0xbe0b0d88	-0.1357938
14	0x3daf45f9	0.08558268
15	0xbde023ce	-0.10944329
16	0x3dca7ce3	0.098871015
17	0xbe8fcc89	-0.28085735
18	0x3e849228	0.25892758
19	0x3de1383f	0.10997056
20	0xbe97a2a2	-0.29616266
21	0x3e953959	0.29145315
22	0xbdad544a	-0.084633425
23	0xbccf9f7c	-0.025344603
24	0xbe936142	-0.2878514
25	0x3dcd1e78	0.10015577
26	0x3e8264d1	0.25467542
27	0x3d9dd6f8	0.07707018
28	0x3c3ac45f	0.011399358
29	0xbd5a70aa	-0.0533301
30	0xbefa0425	-0.48831287
31	0xbe924b3a	-0.28573018
32	0x3ce3b6a1	0.027797045
33	0xbed80a80	-0.4219551
34	0xbd85d54a	-0.06534822
35	0x3e045e8b	0.1292669
36	0xbeaf3207	-0.34217855
37	0xbe0ecd62	-0.13945535
38	0x3d99e6c5	0.07514719
39	0x3ec90d35	0.3926789
40	0x3d40f75d	0.047110904
41	0x3e8ae7b5	0.27129903
42	0xbd95af22	-0.073087946
43	0x3ef34d8d	0.47520104
44	0x3e906d24	0.28208268
45	0x3ee667b6	0.45001
46	0x3eb12edc	0.34606063
47	0x3e3cd62e	0.18441078
48	0x3eec516a	0.46155864
49	0x3c1c33ed	0.009533864
50	0xbce82ee4	-0.028342672
51	0x3ea09ae8	0.31368184
52	0x3e958d84	0.2920953
53	0x3d70625c	0.058687553
54	0xbea1c4bd	-0.31595412
55	0xbdfdae5f	-0.12386774
56	0xbe93d8be	-0.288763
57	0x3e25fb98	0.16209257
58	0xbe48acbb	-0.19597141
59	0x3e74add8	0.23894441
60	0xbd98d7d4	-0.07463041
61	0xbe0f5497	-0.13997112
62	0xbd66de4c	-0.056364343
63	0xbe97cd85	-0.29648986
64	0xbdfb33fb	-0.12265774
65	0x3e59a3a9	0.21253838
66	0x3e81ae31	0.2532821
67	0x3cc9fc38	0.0246564
68	0x3e5510b0	0.20807147
69	0x3e4b0045	0.19824322
70	0x3eefecbf	0.4686031
71	0x3e31313e	0.1730394
72	0x3f10f50a	0.566239
73	0x3e5e7533	0.21724395
74	0x3e05edf7	0.13079058
75	0x3eb4b9be	0.3529796
76	0xbd9cad83	-0.07650282
77	0x3e3ad50c	0.18245333
78	0x3e94979f	0.29021928
79	0xbe303b09	-0.1721002
80	0xbe963985	-0.2934076
81	0x3d721fdc	0.059112415
82	0xbcdcb601	-0.026942255
83	0x3ed132e6	0.40859145
84	0x3eb37695	0.35051408
85	0xbdf7ee87	-0.12106042
86	0x3ec97d24	0.39353287
87	0x3de2134f	0.11038839
88	0x3e8a4309	0.2700427
89	0xbda01199	-0.078158565
90	0x3d26e069	0.040741358
91	0x3e1506a6	0.14553317
92	0xbea4a3c4	-0.32156193
93	0x3e3caf90	0.18426347
94	0xbe5bb5f7	-0.21456133
95	0x3dc1ac99	0.094567485
96	0xbd9ffa70	-0.07811439
97	0xbe66a930	-0.22525477
98	0xbe64644f	-0.2230389
99	0x3db1e7d8	0.08686799
100	0xbea76e9a	-0.3270157
101	0xbdcec07c	-0.10095307
102	0x3d85fe0d	0.06542597
103	0xbe883e45	-0.26610008
104	0x3ecae48d	0.39627495
105	0x3de01765	0.10941962
106	0x3d7436c8	0.059622556
107	0x3eff2f17	0.49840614
108	0x3e8cc053	0.27490482
109	0x3f217776	0.6307291
110	0x3e3eaf7a	0.18621626
111	0x3d9ae8a8	0.07563907
112	0x3eb18706	0.34673327
113	0x3ee6eef7	0.4510419
114	0x3eacaf61	0.33727553
115	0x3eec5c63	0.46164235
116	0x3e1cf79e	0.15328833
117	0xbdb94f06	-0.09048276
118	0x3e8aa246	0.2707693
119	0xbe147a61	-0.14499809
120	0x3b9f5967	0.0048629525
121	0x3ed1ac4a	0.4095176
122	0x3ebe95e9	0.37223747
123	0x3f22e556	0.6363119
124	0x3e835186	0.25648135
125	0x3d914ee0	0.07095122
126	0x3e96ae4a	0.29429847
127	0x3eb0a811	0.34503224
128	0x3ea670b1	0.32507852
129	0x3d8bbf9e	0.068236575
130	0xbd541b90	-0.0517841
131	0xbec75d23	-0.38938245
132	0x3e0e48d5	0.1389497
133	0xbed80f3c	-0.42199123
134	0xbea7dead	-0.32787076
135	0x3897c13d	7.2362345e-05
136	0x3e800382	0.25002676
137	0xbe77824b	-0.24170797
138	0xbce1604e	-0.027511742
139	0xbed99971	-0.4249988
140	0x3c8d0969	0.017216401
141	0x3d279656	0.040914856
142	0xbdb22f7a	-0.08700462
143	0xbcb123b2	-0.021623466
144	0x3e308e93	0.17241888
145	0xbe31b2ba	-0.17353335
146	0x3d710685	0.058844108
147	0xbe868ae5	-0.26277843
148	0xbdcce5e8	-0.10004789
149	0x3e910784	0.28326046
150	0x3dd579da	0.10423632
151	0x3e5636e8	0.20919383
152	0x3e39772d	0.18111868
153	0x3e153e41	0.14574529
154	0xbe67130f	-0.22565864
155	0xbc953980	-0.018215895
156	0xbd3002ce	-0.042971425
157	0xbd49d02e	-0.0492708
158	0xbd8849a0	-0.06654668
159	0x3d7b96a4	0.06142296
160	0xbf06ff8a	-0.5273367
161	0xbf000024	-0.50000215
162	0xbe8153e2	-0.2525931
163	0xbea087a2	-0.3135348
164	0xbdbbcf20	-0.09170365
165	0xbd558e41	-0.052137617
166	0xbec3636d	-0.38161793
167	0x3e42c340	0.19019794
168	0xbe892917	-0.26789162
169	0xbe0addb7	-0.1356114
170	0xbdd34af2	-0.10317029
171	0xbe5e212f	-0.21692346
172	0x3e80f940	0.25190163
173	0xbd3cf15b	-0.046128612
174	0x3f051945	0.51991683
175	0x3ea1ed7c	0.316265
176	0x3eee5c92	0.46555
177	0x3d35b7f5	0.04436489
178	0x3e82aaa5	0.25520816
179	0x3e1e9ca0	0.15489435
180	0xbe9c7422	-0.30557352
181	0x3e1b5b09	0.15171446
182	0xbe89e383	-0.2693139
183	0x3dc4d46c	0.09610829
184	0x3df8d69a	0.12150307
185	0x3e0ebd35	0.13939364
186	0x3d948cb3	0.07253399
187	0xbe6d1def	-0.2315595
188	0xbd7ae89e	-0.061256997
189	0xbe86bbb2	-0.26315075
190	0x3d6b3c7a	0.05743072
191	0x3e981890	0.2970624
192	0x3d953670	0.07285774
193	0x3e068666	0.13137206
194	0x3db4f9fa	0.08836742
195	0x3e283574	0.16426641
196	0xbe2d87c9	-0.16946329
197	0x3d5957e1	0.053062323
198	0x3e1a0437	0.1504067
199	0x3dd25489	0.1027003
200	0x3ecfd975	0.40595594
201	0x3ec43f85	0.38329712
202	0x3ebf937d	0.37417212
203	0x3d1edb97	0.038783636
204	0xbdffd790	-0.12492287
205	0x3ea7145b	0.32632717
206	0xbe19b872	-0.15011767
207	0xbd7bc382	-0.061465748
208	0xbed01576	-0.40641373
209	0xbed61a25	-0.41816822
210	0x3bb3d239	0.005487707
211	0xbe97f82a	-0.29681522
212	0xbc915c57	-0.017744226
213	0x3e124b83	0.14286618
214	0xbea296da	-0.31755716
215	0x3df6324a	0.120213106
216	0xbe91644f	-0.28396842
217	0xbed1f3e2	-0.4100638
218	0x3d63592f	0.055504974
219	0xbc383f51	-0.011245565
220	0xbe65584b	-0.22396962
221	0x3e872b39	0.26400164
222	0x3d8c9711	0.06864751
223	0x3db8b5ad	0.09019027
224	0x3d812c6f	0.06307303
225	0xbe4dbe64	-0.2009216
226	0xbe413005	-0.18865974
227	0xbe53ada8	-0.20671713
228	0xbd5047bf	-0.050849672
229	0x3da03738	0.07823032
230	0x3ddd47df	0.10804724
231	0xbdeb1926	-0.11479406
232	0x3e994aed	0.29939976
233	0x3e67332f	0.22578119
234	0x3e14db2c	0.14536732
235	0x3e0ba982	0.13638881
236	0x3e044eeb	0.1292073
237	0x3e21ecd5	0.15813
238	0x3ece42ce	0.40285343
239	0xbce3b8de	-0.027798112
240	0x3e53bb55	0.2067693
241	0xbe5cc7c4	-0.2156058
242	0x3e86e92f	0.2634978
243	0xbd9b74c1	-0.075906284
244	0xbdbdc59c	-0.092662066
245	0xbea9e9a0	-0.33186054
246	0xbcc229a9	-0.023701506
247	0xbea3bd9d	-0.319806
248	0xbd19f101	-0.037583355
249	0x3d83d87e	0.06437777
250	0xbe1e45f2	-0.1545637
251	0x3ea32120	0.3186121
252	0x3bf139e1	0.007361636
253	0x3dcf69c6	0.101275966
254	0x3e4d9996	0.2007812
255	0xbe4939d3	-0.19650964

lstm.weight_hh_l0 f4 [40, 10]
0	0x3c6ccb69	0.014452794
1	0xbea5a0a3	-0.3234912
2	0x3ee656d2	0.44988114
3	0xbd96de0a	-0.07366569
4	0xbd2bb57b	-0.04192112
5	0x3d938b8a	0.07204349
6	0xbf0d0038	-0.5507846
7	0x3d65dd25	0.056119103
8	0xbec783cb	-0.38967738
9	0xbe8d6a1c	-0.27620018
10	0xbe939713	-0.28826198
11	0xbe06f739	-0.13180245
12	0xbe8e47f7	-0.2778928
13	0xbbcb8e39	-0.0062120226
14	0xbe954876	-0.29156846
15	0x3e95bf38	0.2924745
16	0x3deb0a2e	0.11476551
17	0xbe8ed5de	-0.27897543
18	0xbcf74eb2	-0.030188892
19	0xbd61cfc7	-0.055129793
20	0x3dd2c5fe	0.1029167
21	0xbdbd9764	-0.09257391
22	0x3ea9ae03	0.33140573
23	0x3d97633c	0.07391974
24	0xbdf932a6	-0.121678635
25	0x3dba7f22	0.0910628
26	0xbe1a2a68	-0.15055239
27	0xbe798ad3	-0.24369363
28	0xbdc4e009	-0.09613044
29	0x3e82dc58	0.25558734
30	0xbd9a7d5a	-0.0754344
31	0x3db15d0e	0.08660327
32	0x3e2c9197	0.16852413
33	0xbe127edd	-0.14306207
34	0x3cd1cada	0.025609422
35	0x3e890793	0.2676359
36	0xbe788a48	-0.242715
37	0xbdc0dfd8	-0.09417695
38	0x3de5cdae	0.11220871
39	0x3e7660c7	0.24060355
40	0x3e23c58c	0.15993327
41	0x3d09e2a6	0.033663414
42	0x3e79288e	0.24331877
43	0x3e183dc7	0.14867316
44	0xbd1adee6	-0.03781023
45	0xbde153f5	-0.11002342
46	0xbd779ade	-0.060450427
47	0x3e43fe4c	0.19139975
48	0x3e8d06b3	0.27544174
49	0xbe64215c	-0.2227835
50	0xbce9fa3f	-0.02856171
51	0x3e6754c6	0.22590932
52	0x3d948fbc	0.07253978
53	0x3e42f3ee	0.19038364
54	0x3e61794e	0.2201893
55	0xbe5c70ef	-0.21527456
56	0xbdabc9ad	-0.08388076
57	0xbd0f3d3d	-0.03497051
58	0xbe161d50	-0.1465962
59	0x3dc2f721	0.09519792
60	0xbe14d5fd	-0.14534755
61	0x3e360890	0.17776704
62	0x3eb02672	0.3440433
63	0xbe48567e	-0.19564244
64	0xbe409784	-0.18807799
65	0xbe48c67d	-0.19606967
66	0xbec8b25b	-0.39198574
67	0xbdc62e8b	-0.09676846
68	0xbe909c65	-0.2824432
69	0x3d8444a3	0.06458404
70	0xbd9241b6	-0.071414396
71	0x3e8ce598	0.27518916
72	0x3dc7d23f	0.09756898
73	0xbdedf3d3	-0.116187714
74	0x3e52cb6c	0.20585412
75	0x3e8f7584	0.28019345
76	0xbe796481	-0.24354745
77	0x3e3b7f73	0.18310337
78	0xbdd6b98d	-0.1048461
79	0x3dd6589e	0.10466121
80	0xbd911734	-0.07084504
81	0xbd5ba69b	-0.053625684
82	0x3ec8d2ed	0.39223424
83	0x3ea3a9bc	0.31965435
84	0xbd7238b3	-0.059136104
85	0xbe08f8fb	-0.13376229
86	0xbef073fa	-0.46963483
87	0xbf0b8e9c	-0.5451448
88	0xbea3e09e	-0.32007307
89	0xbe4bdf4f	-0.19909404
90	0xbead32df	-0.33827874
91	0xbe556549	-0.20839418
92	0x3d81aac8	0.06331402
93	0x3ec2b916	0.38031834
94	0xbee6cff0	-0.4508052
95	0xbdcfc97b	-0.10145851
96	0xbf0d8b80	-0.55290985
97	0xbeabe8a7	-0.33575937
98	0xbeb59789	-0.35467175
99	0xbd90d932	-0.07072677
100	0xbe42f305	-0.19038017
101	0x3e618b67	0.22025834
102	0xbde16227	-0.11005049
103	0xbef9d7f7	-0.4879758
104	0x3e9e385d	0.30902377
105	0xbebcdcd8	-0.3688724
106	0xbbf17d98	-0.0073697083
107	0x3ec6a9b6	0.38801354
108	0x3e0e7daf	0.13915132
109	0xbee521ed	-0.44752446
110	0x3dbe9548	0.09305817
111	0x3d50140e	0.050800376
112	0xbc572448	-0.013131209
113	0xbe7f6f51	-0.24944808
114	0xbc8e269f	-0.0173524
115	0x3ddd1f43	0.10796978
116	0xbe098247	-0.13428603
117	0xbe41add1	-0.18913962
118	0x3e4ae9ce	0.19815752
119	0x3d89bbda	0.06725283
120	0x3ecca0c9	0.3996642
121	0xbd623114	-0.055222586
122	0x3ded23e3	0.115791105
123	0xbe577119	-0.21039237
124	0x3e39b141	0.18134023
125	0xbe4773ce	-0.1947777
126	0x3e19352f	0.14961694
127	0xbe0a7780	-0.13522148
128	0x3e594e8e	0.21221372
129	0xbde48494	-0.111581
130	0xbea2088e	-0.31647152
131	0x3c5e1255	0.013554175
132	0x3da14adf	0.07875609
133	0xbeab37f6	-0.33441132
134	0x3ea43147	0.32068846
135	0xbe43e482	-0.19130138
136	0xbe3cfce8	-0.18455851
137	0x3e28eb9a	0.16496125
138	0xbdb33235	-0.087498106
139	0xbec71854	-0.38885748
140	0x3ea168f7	0.31525394
141	0x3e09b32f	0.1344726
142	0x3e4e0b62	0.2012153
143	0xbc58e1b1	-0.013237403
144	0xbe8542a2	-0.260274
145	0xbe9d1c60	-0.3068571
146	0xbe69aeb9	-0.22820558
147	0x3e405998	0.18784177
148	0x3a657b87	0.0008754064
149	0x3e82dcc6	0.25559062
150	0xbe98a535	-0.29813543
151	0xbd76f010	-0.060287535
152	0xbab2fa04	-0.0013654833
153	0xbe81bd71	-0.25339845
154	0x3befe9ea	0.007321586
155	0x3e5d0156	0.21582541
156	0x3e05261e	0.13002822
157	0x3e555376	0.20832619
158	0x3d91d620	0.07120919
159	0x3dd69049	0.10476739
160	0xbe7b7bcc	-0.24558944
161	0x3edb09e4	0.42780983
162	0x3cfcda09	0.030865686
163	0xbe57ede5	-0.21086843
164	0xbdd14c39	-0.102196164
165	0xbe949716	-0.2902152
166	0xbe8f7ac1	-0.2802334
167	0xbe0182f4	-0.12647611
168	0xbe25d73e	-0.1619539
169	0x3e5af5ad	0.2138278
170	0x3cca8821	0.024723114
171	0x3e45a7a4	0.19302231
172	0x3d69e1e4	0.05710019
173	0x3e54b481	0.20771982
174	0xbe60627c	-0.21912569
175	0x3e299af3	0.16563015
176	0xbcb3d3f3	-0.021951651
177	0x3bfa8f64	0.007646488
178	0x3e321560	0.17390966
179	0xbc871973	-0.016491627
180	0xbe61573c	-0.22005934
181	0xbdbd36fb	-0.09239002
182	0xbe3d4d33	-0.1848648
183	0xbe07b10a	-0.13251129
184	0x3e55294e	0.20816538
185	0x3d090c9c	0.03345929
186	0x3ee6e824	0.45098984
187	0x3e3e2fc6	0.18572912
188	0xbd33d14c	-0.043900773
189	0xbe7d8c2a	-0.247605
190	0x3d8b31e3	0.067966245
191	0xbda70306	-0.081548735
192	0xbec2e248	-0.38063264
193	0x3cd6d4fa	0.026224602
194	0x3e6d90ed	0.23199816
195	0x3d75a84c	0.059974954
196	0x3a87b06e	0.0010352263
197	0xbd93c7db	-0.07215854
198	0xbe5cc036	-0.21557698
199	0xbd5893bd	-0.05287527
200	0xbdf7e155	-0.121035255
201	0x3e5bfe27	0.2148367
202	0xbdaffa1a	-0.08592625
203	0xbe456500	-0.1927681
204	0x3bf17362	0.007368491
205	0x3ce6343f	0.028101085
206	0xbd088310	-0.033328116
207	0x3e47f4b6	0.19526944
208	0x3b847d42	0.004043252
209	0xbc8019b7	-0.015637262
210	0xbe496455	-0.1966718
211	0xbde285fc	-0.11060712
212	0xbe6f8cf2	-0.2339361
213	0xbdcd60c2	-0.10028221
214	0x3e2da1d1	0.1695626
215	0x3e7597b6	0.23983654
216	0x3d306ff5	0.04307552
217	0xbc53009b	-0.012878562
218	0xbe606fde	-0.21917674
219	0xbe6228db	-0.22085898
220	0x3ea466c3	0.3210965
221	0xbebe3192	-0.37147194
222	0x3de74d33	0.112940215
223	0x3ecd9054	0.40149176
224	0xbeb328f8	-0.34992194
225	0x3eafbe5a	0.34324914
226	0xbe9071f9	-0.28211954
227	0xbe2b745d	-0.16743608
228	0x3e46660b	0.19374864
229	0x3df49930	0.11943281
230	0xbd16fe35	-0.036863524
231	0x3e9a4101	0.3012772
232	0x3e0d7fce	0.13818285
233	0x3e0fcaf0	0.14042258
234	0x3d6c6bd0	0.057720006
235	0xbda1f0fb	-0.079072915
236	0xbb9c4f7e	-0.0047702184
237	0xbda01697	-0.07816809
238	0xbcf7b32a	-0.0302368
239	0x3e1b71cc	0.15180129
240	0x3e6c8507	0.23097621
241	0xbea10ec2	-0.31456572
242	0xbc8e14d5	-0.017343918
243	0xbdd89c89	-0.10576732
244	0x3d8686dd	0.06568692
245	0x3ddb052e	0.10694347
246	0x3e99112a	0.29895908
247	0x3da2a62f	0.07941853
248	0xbc3c293c	-0.01148444
249	0xbe81b528	-0.25333524
250	0xbe156720	-0.1459012
251	0xbe2d250a	-0.1690866
252	0xbda44832	-0.08021583
253	0x3e0eccf4	0.13945371
254	0xbe6b648e	-0.22987577
255	0xbe2d484c	-0.1692211

lstm.bias_ih_l0 f4 [40]
0	0xbdc3f4fd	-0.09568212
1	0xbe776ef8	-0.24163425
2	0x3e947846	0.2899801
3	0xbd3ec8f2	-0.046578355
4	0x3e0b3d11	0.13597514
5	0xbe7a385d	-0.24435563
6	0x3ebe5f93	0.37182292
7	0xbe86e5f9	-0.2634733
8	0x3e91d544	0.2848302
9	0x3d496019	0.04916391
10	0xbe4994dd	-0.19685693
11	0x3e9de151	0.30835965
12	0x3e29bcb7	0.16575895
13	0x3ca8c83f	0.020603297
14	0x3d96d97a	0.07365699
15	0xbe936599	-0.2878845
16	0x3d6e198e	0.05812984
17	0xbd9e1749	-0.07719285
18	0xbeba0b01	-0.3633652
19	0x3e276973	0.1634882
20	0xbd4e31cd	-0.050340462
21	0xbe11319c	-0.1417908
22	0xbce04396	-0.027375977
23	0xbd35477d	-0.04425763
24	0xbe9265a4	-0.2859317
25	0xbe54f560	-0.20796728
26	0xbe4d248c	-0.20033473
27	0xbea3283a	-0.31866628
28	0xbe8a3413	-0.26992854
29	0x3e4ad242	0.1980677
30	0xbe660885	-0.22464187
31	0xbddef7e2	-0.10887124
32	0x3ed25015	0.41076723
33	0x3db8ff38	0.09033054
34	0xbe4bb63f	-0.1989374
35	0xbe244325	-0.16041239
36	0xbe0fee24	-0.14055687
37	0xbd8e32d8	-0.069432914
38	0x3e98311f	0.29724976
39	0xbd3dc447	-0.046329763

lstm.bias_hh_l0 f4 [40]
0	0x3ef3f737	0.47649547
1	0xbe2da8b9	-0.16958894
2	0x3c2d511c	0.01057842
3	0x3e04164c	0.1289913
4	0x3e3f2738	0.18667305
5	0xbe3e28c2	-0.18570235
6	0xbc8fa73d	-0.0175358
7	0x3da105bb	0.07862421
8	0x3e90682b	0.28204474
9	0x3ebc62ff	0.36794278
10	0xbea2b7ba	-0.31780797
11	0x3dc8cbbb	0.098044835
12	0xbe05fa43	-0.13083749
13	0xbe962edb	-0.29332623
14	0xbe9628c7	-0.29327986
15	0x3c9a07d9	0.01880257
16	0x3d3ac93d	0.045602072
17	0xbe099f2e	-0.13439628
18	0xbe6193a1	-0.22028972
19	0x3d38c2bd	0.045107592
20	0xbe94ac1b	-0.29037556
21	0xbe76c960	-0.24100256
22	0x3e7b7dd9	0.24559726
23	0xbe34960c	-0.17635363
24	0xbe2c45ef	-0.16823553
25	0x3e2b8e36	0.16753468
26	0x3dbc5876	0.0919656
27	0x3de5b5e1	0.11216331
28	0x3d761402	0.060077675
29	0xbe54e7d6	-0.20791563
30	0x3e447cd3	0.19188242
31	0xbdd60b0f	-0.10451328
32	0x3e56179b	0.20907442
33	0x3e6825fb	0.22670738
34	0x3e70c204	0.23511511
35	0xbdd199c8	-0.102344096
36	0x3e4d083c	0.20022672
37	0xbdc96d04	-0.09835246
38	0x3ed1d696	0.4098403
39	0x3ec6469b	0.38725743

fc1.weight f4 [5, 10]
0	0x3ea24f5d	0.31701174
1	0x3cc8ff00	0.024535656
2	0xbe8aee65	-0.27135006
3	0x3f028eb4	0.50999
4	0xbd796042	-0.060882814
5	0x3e98b559	0.29825857
6	0x3decb181	0.11557294
7	0xbe618d7c	-0.22026628
8	0x3f195126	0.5988945
9	0x3ed3c8e7	0.41364214
10	0xbd5b0d92	-0.05347974
11	0x3d39633a	0.045260645
12	0x3e896879	0.2683752
13	0xbe3d8ca9	-0.18510689
14	0x3adf902a	0.0017056514
15	0x3ccc34f8	0.024927601
16	0x3e45b865	0.19308622
17	0x3e2a4c0e	0.16630575
18	0xbe70fee8	-0.23534739
19	0x3ddb141a	0.106971934
20	0xbe3fd8fe	-0.1873512
21	0x3e48b5bc	0.19600576
22	0xbe8bdea4	-0.273183
23	0x3e92eaaa	0.2869466
24	0xbdf23d1d	-0.11828063
25	0xbe628204	-0.2211991
26	0x3e9f988f	0.3117108
27	0x3e39775e	0.18111941
28	0x3d92468e	0.071423635
29	0x3e9e3d3b	0.3090609
30	0xbe652ac5	-0.22379597
31	0x3df075bf	0.11741208
32	0x3e8590f4	0.26087153
33	0x3e83a9a9	0.25715378
34	0xbea1df53	-0.31615695
35	0xbe8bbc05	-0.27291885
36	0xbe30c756	-0.1726354
37	0xbe1b69fd	-0.1517715
38	0xbdc86184	-0.09784225
39	0xbe0bced1	-0.13653113
40	0xbe6b369c	-0.2297005
41	0x3e3efc91	0.18651034
42	0x3d8eae82	0.069668785
43	0x3dc80d56	0.09768169
44	0x3e85180f	0.25994918
45	0xbe3ecaad	-0.18632002
46	0xbe2c2107	-0.16809474
47	0xbe83f31e	-0.2577142
48	0xbe122f26	-0.14275798
49	0xbdda591b	-0.10661527

fc1.bias f4 [5]
0	0x3d980694	0.0742313
1	0x3e33ac29	0.17546143
2	0xbe206140	-0.15662098
3	0x3e426b3a	0.18986216
4	0x3e93ef95	0.28893724

fc2.weight f4 [3, 5]
0	0x3f2416e2	0.64097416
1	0xbf2824eb	-0.6568133
2	0x3ec7e003	0.39038095
3	0x3e890d75	0.2676808
4	0xbf15d0ae	-0.58521545
5	0xbe323271	-0.17402054
6	0x3e618a76	0.22025475
7	0xbe791beb	-0.24327056
8	0x3e412f21	0.18865635
9	0xbe209a22	-0.15683797
10	0x3ef069a4	0.46955597
11	0xbf0ad4ad	-0.5423077
12	0x3e7381a3	0.23779921
13	0xbeef65db	-0.46757397
14	0xbdd65758	-0.10465878

fc2.bias f4 [3]
0	0x3e1d2174	0.15344793
1	0xbedcdcd8	-0.4313724
2	0x3e779815	0.24179108

fc3.weight f4 [1, 3]
0	0x3ef2ee51	0.47447446
1	0x3e0517f7	0.12997423
2	0x3ebf9e24	0.3742534
